…
ywidgets==7.7.1 found, needs ipywidgets>=8\nRun `pip install -U ipywidgets`, then restart the notebook server for rich notebook output.\n2024-08-13 06:50:31,401\tINFO util.py:124 -- Outdated packages:\n  ipywidgets==7.7.1 found, needs ipywidgets>=8\nRun `pip install -U ipywidgets`, then restart the notebook server for rich notebook output.\n","output_type":"stream"},{"name":"stdout","text":"Overriding model.yaml nc=80 with nc=1\n\n                   from  n    params  module                                       arguments                     \n  0                  -1  1      1760  ultralytics.nn.modules.conv.Conv             [3, 16, 6, 2, 2]              \n  1                  -1  1      4672  ultralytics.nn.modules.conv.Conv             [16, 32, 3, 2]                \n  2                  -1  1      4800  ultralytics.nn.modules.block.C3              [32, 32, 1]                   \n  3                  -1  1     18560  ultralytics.nn.modules.conv.Conv             [32, 64, 3, 2]                \n  4                  -1  2     29184  ultralytics.nn.modules.block.C3              [64, 64, 2]                   \n  5                  -1  1     73984  ultralytics.nn.modules.conv.Conv             [64, 128, 3, 2]               \n  6                  -1  3    156928  ultralytics.nn.modules.block.C3              [128, 128, 3]                 \n  7                  -1  1    295424  ultralytics.nn.modules.conv.Conv             [128, 256, 3, 2]              \n  8                  -1  1    296448  ultralytics.nn.modules.block.C3              [256, 256, 1]                 \n  9                  -1  1    164608  ultralytics.nn.modules.block.SPPF            [256, 256, 5]                 \n 10                  -1  1     33024  ultralytics.nn.modules.conv.Conv             [256, 128, 1, 1]              \n 11                  -1  1         0  torch.nn.modules.upsampling.Upsample         [None, 2, 'nearest']          \n 12             [-1, 6]  1         0  ultralytics.nn.modules.conv.Concat           [1]                           \n 13                  -1  1     90880  ultralytics.nn.modules.block.C3              [256, 128, 1, False]          \n 14                  -1  1      8320  ultralytics.nn.modules.conv.Conv             [128, 64, 1, 1]               \n 15                  -1  1         0  torch.nn.modules.upsampling.Upsample         [None, 2, 'nearest']          \n 16             [-1, 4]  1         0  ultralytics.nn.modules.conv.Concat           [1]                           \n 17                  -1  1     22912  ultralytics.nn.modules.block.C3              [128, 64, 1, False]           \n 18                  -1  1     36992  ultralytics.nn.modules.conv.Conv             [64, 64, 3, 2]                \n 19            [-1, 14]  1         0  ultralytics.nn.modules.conv.Concat           [1]                           \n 20                  -1  1     74496  ultralytics.nn.modules.block.C3              [128, 128, 1, False]          \n 21                  -1  1    147712  ultralytics.nn.modules.conv.Conv             [128, 128, 3, 2]              \n 22            [-1, 10]  1         0  ultralytics.nn.modules.conv.Concat           [1]                           \n 23                  -1  1    296448  ultralytics.nn.modules.block.C3              [256, 256, 1, False]          \n 24        [17, 20, 23]  1    751507  ultralytics.nn.modules.head.Detect           [1, [64, 128, 256]]           \nYOLOv5n summary: 262 layers, 2,508,659 parameters, 2,508,643 gradients, 7.2 GFLOPs\n\nTransferred 391/427 items from pretrained weights\n\u001b[34m\u001b[1mTensorBoard: \u001b[0mStart with 'tensorboard --logdir runs/detect/train', view at http://localhost:6006/\nFreezing layer 'model.24.dfl.conv.weight'\n\u001b[34m\u001b[1mAMP: \u001b[0mrunning Automatic Mixed Precis
…
